app/src/main/assets/sign_language_model.tflite (tflite, 505456 bytes, 10 tensors)

arith.constant9 f4 [2]
00000000: a2ec 1ebb a2ec 1e3b
-0.002424993 0.002424993

arith.constant10 f4 [64]
00000000: f66d 1fbb 7e54 873a 81ca 07bb 4978 21bb
00000010: 6336 023b 5627 313b 6835 093b cf38 253b
00000020: 341e 17bb 2142 cbba 5e96 8aba a0ac 2e3b
00000030: fce0 0d3b 56f4 233b 00f9 3f3b 1e18 13bb
00000040: 5c5c 1fbb d3d1 e53a 9733 95ba 84b3 d53a
00000050: 3a94 aaba f613 33bb d555 1abb df27 423b
00000060: 6e2d 433b fe5d 23ba ec7e acba 370f 24bb
00000070: d639 3bbb bc1e 93ba 37cd 19bb cce8 f7ba
00000080: aee5 003b 6e26 0cba 8d6f b73a e06b 093b
00000090: b6f4 0b3b cd63 81b9 468e 1b3b 30e1 ac3a
000000a0: d739 12bb 0c6c 5aba 7fcb 193b 7255 593a
000000b0: 6832 ed3a fa16 2c3b 4ee9 9cba c422 01bb
000000c0: 49e6 3e3b 0eeb 593a f099 0cbb bc71 063a
000000d0: 64f5 373b 503c d53a 1a6b 07bb 166b 41bb
000000e0: 182d 9939 a37c bbba 80ac 1dbb 827e 1cbb
000000f0: 0b20 1cbb f407 3ebb db73 14bb 3028 2eba
-0.0024327016 0.0010324863 -0.0020720067 -0.0024638346 0.0019868843 0.0027031503 0.0020936374 0.0025210863
-0.0023058774 -0.0015507379 -0.0010573377 0.0026653185 0.0021648994 0.0025017462 0.0029292703 -0.0022444795
-0.0024316525 0.0017533846 -0.0011383173 0.001630411 -0.0013014146 -0.002732513 -0.0023549695 0.0029625816
0.0029781717 -0.00062319625 -0.0013160384 -0.0025033483 -0.0028568408 -0.001122437 -0.0023468265 -0.0018913983
0.001966815 -0.00053463026 0.0013995037 0.002096884 0.0021355576 -0.00024679155 0.0023735925 0.001318967
-0.0022312307 -0.000833214 0.002346724 0.00082906254 0.0018096687 0.0026258812 -0.0011971386 -0.001970456
0.002912896 0.0008312919 -0.0021454059 0.0005128642 0.0028069848 0.0016268585 -0.0020663203 -0.002951329
0.00029216032 -0.0014304112 -0.0024059117 -0.0023879115 -0.002382281 -0.002899644 -0.0022652063 -0.00066435616

arith.constant14 f4 [2, 64]
00000000: 1db9 68be 9516 873e 5969 a13d 5156 823e
00000010: 221b 52bd 7f36 21be 4cd6 86be aba3 93be
00000020: aa88 a1bc 6664 bcbd 6dab 073e 4229 a03d
00000030: 9db9 4ebd cf53 103e e1f7 6ebe b7a0 7b3c
00000040: 6b35 6bbd 9c88 2cbe a74c 04be c0d1 b63d
00000050: 1ca1 063e ff74 923e b414 483e 6073 75be
00000060: 929f febd abf9 e53d c4ed 8e3e de62 0cbe
00000070: c733 c7bd 7998 c2bd 2199 493e 299b 9bbc
00000080: b4ee 66be 8e4d 91be 3ad5 54be 1ac7 91be
00000090: 4a09 66be a72a 953e c499 e93d 2b13 7bbc
000000a0: 0f71 5d3e 5851 783e c519 ac3c 11fa 6ebe
000000b0: 3bb0 50be 1b6d fe3b 76fc 483e 9fa9 ea3d
000000c0: bc15 75be aaca 85be 921b 8b3e 5244 8fbe
000000d0: 31dd 4b3e 5907 063e 61f6 873b 4338 70be
000000e0: 53f2 6d3e c9eb 0abd 3a4b 273d 51c2 48be
000000f0: 6a10 453e c5cb 563e 574e 933d 64fa 513e
00000100: 172e 58be 892a 8fbe 2e39 77be ab0d 673e
00000110: eb8b 173e 713e f83d b110 c93d 6ecb a7bd
00000120: 8760 60be 26bb 973e 5558 3cbe 6238 8f3e
00000130: 437c 20bd 639e 483e cf60 10be e3c8 d0bd
00000140: f22d 5cbe f311 ebba 0364 9ebd efe4 243e
00000150: cbd8 e0bc 6209 703d 96c2 4abe 0a45 6fbd
00000160: ee11 81bd 6f32 21bd 3681 f0bd c362 29be
00000170: ab87 23be 2eec 85be 6b26 03be 1144 4dbe
00000180: 7000 4b3e 89f1 06bd dc75 9abd ab89 643e
00000190: c0cd 113d 7581 95be efd8 783e b0c8 693e
000001a0: db5a 0e3e 6e2d 38be 85b2 993e a4af 62be
000001b0: 65b8 5abd c936 5e3e e315 cc3d 75f0 e33d
000001c0: 098a 503d de93 153e b35d 6abe d546 02be
000001d0: cf0b 3abc 4d2d 3d3e dc3f 6cbe b611 923e
000001e0: e433 7f3d 56de 1dbe 1843 95be 675d 6dbe
000001f0: 41c0 62be a059 7ebd 187d af3d 375c 60be
-0.22726865 0.26384416 0.078814216 0.2545648 -0.051295407 -0.15743445 -0.2633537 -0.28835806
-0.019718487 -0.09198837 0.13248987 0.07820369 -0.050469983 0.1409447 -0.23336746 0.015358142
-0.05742399 -0.16848987 -0.12919866 0.089267254 0.13147396 0.28604886 0.19539148 -0.23969793
-0.12432779 0.11229261 0.27915776 -0.1370959 -0.097266726 -0.09501738 0.1968732 -0.018994885
-0.22551996 -0.28379482 -0.20784464 -0.28472215 -0.22464481 0.29134104 0.114062816 -0.015324394
0.2162516 0.2424978 0.021008382 -0.2333758 -0.20379727 0.007764471 0.19627556 0.11458134
-0.23934072 -0.26131183 0.27169472 -0.27981812 0.19908597 0.1308874 0.0041492437 -0.23458962
0.2323697 -0.03391627 0.040843226 -0.19605376 0.19244543 0.2097617 0.071926765 0.20505673
-0.21111332 -0.2796214 -0.24142906 0.22563808 0.14799468 0.12121285 0.09817637 -0.08193098
-0.21911822 0.2963497 -0.18393071 0.27972704 -0.039181005 0.1959167 -0.1409943 -0.10194566
-0.21501902 -0.0017934426 -0.077339195 0.16102956 -0.027447125 0.0586027 -0.19800791 -0.05841545
-0.06302248 -0.039354738 -0.11743395 -0.16541581 -0.15969722 -0.26156753 -0.12807624 -0.20045497
0.19824386 -0.03294519 -0.07542011 0.22318141 0.03559661 -0.2920033 0.24301504 0.22830462
0.13901846 -0.1798608 0.30019012 -0.22137314 -0.05339851 0.21700586 0.09965112 0.11129848
0.05091289 0.14607188 -0.22887306 -0.12722333 -0.011355354 0.18474312 -0.23071235 0.28529137
0.062305346 -0.15416846 -0.2915275 -0.23180161 -0.22143652 -0.06209719 0.085687816 -0.21910177

tfl.pseudo_qconst i1 [64, 64]
00000000: 8baa 049b 173f 923f c1f5 63e7 c000 2cd4
00000010: d209 6acb a57a 941d 7f05 982d 5a1c 88cc
00000020: 55b4 71df 7600 732f 7bb4 1608 20e4 d5ac
00000030: 19a0 e34b 1ee9 eb25 58bf e96a dec7 6eeb
00000040: fbb9 ce4f 4010 dabe 1d75 5176 8e07 b681
00000050: 6e37 18fc 29b0 3d8f 7a22 3c97 653d 64d8
00000060: 27c3 d7a0 5e39 3a32 fdac 3fb7 012c 9cc3
00000070: c01f 9709 6807 eea6 030d 0f1e ac58 98a8
00000080: 2f5c c26e f63d 356b 38e0 72e9 15e2 9a1d
00000090: c812 2c25 44ab 2f5e 5faf 8129 eb9c f8d2
000000a0: 2df8 a3b6 2c08 aebf 495a 8dd1 0360 6084
000000b0: 6403 fb42 dfdf 071d d930 b84a 681e 480b
000000c0: ba73 7f20 b4c6 0ab7 377f 4c5a 35e1 d607
000000d0: 44b9 2c5f 0fb9 8b6f c121 0d06 462d 79ed
000000e0: 4788 5c22 a468 dfaf 5721 c19e c69a b161
000000f0: e6a8 dbd4 4d19 f7d5 8972 4895 6f2e 70f9
-117 -86 4 -101 23 63 -110 63
-63 -11 99 -25 -64 0 44 -44
-46 9 106 -53 -91 122 -108 29
127 5 -104 45 90 28 -120 -52
85 -76 113 -33 118 0 115 47
123 -76 22 8 32 -28 -43 -84
25 -96 -29 75 30 -23 -21 37
88 -65 -23 106 -34 -57 110 -21
-5 -71 -50 79 64 16 -38 -66
29 117 81 118 -114 7 -74 -127
110 55 24 -4 41 -80 61 -113
122 34 60 -105 101 61 100 -40
39 -61 -41 -96 94 57 58 50
-3 -84 63 -73 1 44 -100 -61
-64 31 -105 9 104 7 -18 -90
3 13 15 30 -84 88 -104 -88
47 92 -62 110 -10 61 53 107
56 -32 114 -23 21 -30 -102 29
-56 18 44 37 68 -85 47 94
95 -81 -127 41 -21 -100 -8 -46
45 -8 -93 -74 44 8 -82 -65
73 90 -115 -47 3 96 96 -124
100 3 -5 66 -33 -33 7 29
-39 48 -72 74 104 30 72 11
-70 115 127 32 -76 -58 10 -73
55 127 76 90 53 -31 -42 7
68 -71 44 95 15 -71 -117 111
-63 33 13 6 70 45 121 -19
71 -120 92 34 -92 104 -33 -81
87 33 -63 -98 -58 -102 -79 97
-26 -88 -37 -44 77 25 -9 -43
-119 114 72 -107 111 46 112 -7

arith.constant17 f4 [256]
00000000: 0217 a4b9 afa1 25bb 2696 fbba 8c82 113b
00000010: 7930 0c3b 0b91 203a 776a 343b 60f7 c439
00000020: e400 233b 1712 1a3b ed9c feba a849 06b9
00000030: f289 203b 7ce6 213b 80e9 2dbb c7b5 14bb
00000040: c236 25bb d044 1bb8 1008 fcba 50f0 123b
00000050: 08e2 0f3b 81e8 3ebb c86c 5339 a0c2 4738
00000060: 6e9a 2fbb ce63 ecb9 944b 933a 6060 0cbb
00000070: a003 063b 9e04 2e3b 35f3 323b 56d2 fd3a
00000080: ee87 0dbb de6c da3a 2806 93b8 ca0f 25bb
00000090: 0051 79ba 2efb 2e3b 1674 9eba 5013 1c3b
000000a0: 55ba 123b 38d5 0abb 13bd 02bb 6e12 4cba
000000b0: e6b5 dd3a d576 953a 76e7 ac39 6467 313b
000000c0: 2869 283b adf1 22bb a0f5 3abb 7ef5 173b
000000d0: a70c 0b3b 9adf 85b9 ec29 d8ba 655b 18bb
000000e0: 981c 08ba 4c59 d0b8 f0e5 2fbb da77 22bb
000000f0: bfb9 13bb ea12 eaba f377 78ba b26b 203b
00000100: 87d3 7f3f d65c 7f3f e96e 7f3f e847 803f
00000110: 5c47 803f 7b0d 803f 8658 803f ac49 803f
00000120: ac53 803f 974e 803f 3681 7f3f 2fc1 7f3f
00000130: d652 803f 2c49 803f ac60 7f3f 456d 7f3f
00000140: e656 7f3f 87f7 7f3f 757e 7f3f 5744 803f
00000150: d847 803f d84e 7f3f 9d06 803f b2ec 7f3f
00000160: dd57 7f3f 1be4 7f3f 8b16 803f 706b 7f3f
00000170: 1845 803f 9748 803f 09db 7f3f e440 803f
00000180: 0972 7f3f 0b35 803f 68f1 7f3f cf60 7f3f
00000190: 34a5 7f3f ca54 803f 36b9 7f3f 1455 803f
000001a0: ca48 803f f970 7f3f f473 7f3f a5a6 7f3f
000001b0: e63d 803f 0617 803f df09 803f cb5a 803f
000001c0: f452 803f 0d63 7f3f ea49 7f3f ab48 803f
000001d0: 9245 803f 66e1 7f3f 6b89 7f3f 646f 7f3f
000001e0: 1fc6 7f3f 1e0f 803f 734b 7f3f aa5d 7f3f
000001f0: ef6d 7f3f 78c6 7f3f 86a7 7f3f 4c48 803f
00000200: 4a2a f43a 5dbc 09bb f53f bd3a 9271 103b
00000210: 7261 0ebb ce9f 0abb 32bf 2ebb 88cc 8739
00000220: 753e 1ebb 04ce 113b 3b49 06bb 6a41 25bb
00000230: 2672 143b 4a40 133b 20c4 003b 10ec 0f3b
00000240: b3c0 84ba c611 3eba 9e82 103b 4119 303b
00000250: 32be 0f3b 63d0 e1ba a73b 7cba d225 dc39
00000260: e1ad 2bbb 844e 923a c851 ffba 1eaf fd3a
00000270: 7d7d 0d3b d493 a6b9 3289 14bb 1f96 0abb
00000280: b579 0b3b 1a07 0ebb 41f4 2fbb 1a1a 323b
00000290: fdbf 753a 2a8d 243b 23f2 35bb 3c56 b2b9
000002a0: 7b10 10bb 71a5 0fbb 4c5d 07b9 403c 2cbb
000002b0: 96a5 373a 740d fc3a dcf7 be39 cc29 35bb
000002c0: 46f4 363b 5ce4 823a 3e72 163b cc07 1dbb
000002d0: cd2b 0f3b 6674 1abb 8ef4 9d3a 23eb 383b
000002e0: 54d0 343b da58 34bb 3db1 2e3b 15bc 12bb
000002f0: a620 ddba 3477 5b3a 51b5 1f3b b978 12bb
00000300: 801d feb9 4689 26bb 9e1c feba 0520 103b
00000310: bfcc af3a e600 763a 9995 1f3b 4eb7 2a3b
00000320: 2882 113b 592a 143b b6ed 27bb bf7e 9eb9
00000330: 4482 e63a 8078 2a3b 8a44 26bb 29d9 12bb
00000340: 5f3a 26bb 8097 4737 de2b feba fb7e e23a
00000350: 013d 1a3b fc62 38bb 8074 ee36 e9be 9eba
00000360: 03d7 26bb b2f2 03ba d69d 283a 8d96 00bb
00000370: 44b1 c4ba 9932 3d3b b92c 103b 57e3 1b3a
00000380: b29a 08bb 0480 d239 5d3e 92b9 6ded 26bb
00000390: d49c 7cba cb3e ff3a c225 1e3b 1c85 2c3b
000003a0: 035e bf3a 11f3 0cbb 9044 0cbb 8902 7bba
000003b0: b211 b73a 3569 d039 f96c 87ba e235 203b
000003c0: 0cb9 273b 98bd 1cbb 971c 3cbb e6dd 333b
000003d0: 5823 02b9 7c17 e7ba e67a 31bb cc14 13bb
000003e0: 6f15 33ba 00e1 4cb6 ff27 33bb 965b 1dbb
000003f0: 90ce 13bb ba6b 49ba 1e51 99ba 68c0 ac3a
-0.0003129766 -0.0025273373 -0.0019194528 0.0022203056 0.0021391197 0.0006125129 0.0027529278 0.00037568342
0.0024872357 0.0023509318 -0.001942543 -0.00012806675 0.0024496284 0.002470403 -0.0026536882 -0.0022691356
-0.002520964 -3.7018966e-05 -0.0019228477 0.002242107 0.0021954793 -0.0029130282 0.00020163052 4.7626556e-05
-0.0026794928 -0.00045087788 0.0011237734 -0.0021419749 0.0020448938 0.0026553045 0.0027305607 0.0019365053
-0.0021595913 0.0016664525 -7.010653e-05 -0.0025186413 -0.0009510666 0.0026700008 -0.001208904 0.0023815222
0.0022388895 -0.0021184217 -0.0019949123 -0.00077847287 0.0016915172 0.0011403213 0.00032978848 0.0027069682
0.0025697444 -0.0024863288 -0.0028527752 0.0023187096 0.0021217258 -0.00025534333 -0.0016491986 -0.0023247835
-0.0005192249 -9.934846e-05 -0.0026839934 -0.0024790675 -0.0022541133 -0.001785842 -0.0009478323 0.0024478254
0.9993214 0.9975103 0.9977861 1.0021944 1.0021777 1.0004114 1.0027015 1.0022483
1.0025535 1.0023984 0.99806535 0.9990415 1.002528 1.002233 0.99756885 0.9977611
0.9974197 0.9998707 0.99802333 1.0020856 1.0021925 0.9972968 1.0002018 0.99970543
0.99743444 0.99957436 1.000688 0.9977331 1.0021086 1.0022153 0.99943596 1.0019803
0.9978338 1.0016187 0.9997773 0.99757093 0.99861455 1.0025876 0.99891984 1.0025964
1.0022213 0.9978176 0.99786305 0.99863654 1.001889 1.0007026 1.0003012 1.0027708
1.0025315 0.99760514 0.9972216 1.0022177 1.0021231 0.99953306 0.9981906 0.99779344
0.99911684 1.0004613 0.997245 0.99752295 0.9977712 0.99912214 0.99864995 1.0022063
0.0018628326 -0.0021016814 0.0014438616 0.002204035 -0.0021725562 -0.002115238 -0.0026664254 0.00025901594
-0.0024146114 0.002224804 -0.0020490426 -0.0025215992 0.0022651046 0.002246874 0.001964815 0.0021960773
-0.001012823 -0.0007250573 0.002205051 0.0026870521 0.0021933434 -0.0017228242 -0.0009621926 0.00041989848
-0.002619617 0.0011162315 -0.0019479329 0.0019354557 0.002158969 -0.00031772128 -0.0022664783 -0.0021146608
0.002128226 -0.0021671713 -0.0026848468 0.0027176202 0.0009374617 0.0025108554 -0.0027762733 -0.00034015055
-0.002198248 -0.002191868 -0.00012909359 -0.002628103 0.000700557 0.0019230084 0.00036424294 -0.002764332
0.0027916594 0.0009986269 0.0022956277 -0.0023960946 0.0021846176 -0.0023567914 0.0012051032 0.0028216324
0.0027589994 -0.002751878 0.0026655935 -0.0022389938 -0.0016870692 0.00083719497 0.0024369548 -0.0022349788
-0.00048468634 -0.0025411411 -0.0019387191 0.0021991741 0.001341246 0.0009384289 0.0024350642 0.00260492
0.0022202823 0.002260825 -0.0025623864 -0.00030230542 0.001758643 0.0026011765 -0.0025370442 -0.002240727
-0.0025364382 1.1896598e-05 -0.0019391736 0.0017280275 0.0023534896 -0.002813517 7.106515e-06 -0.0012111339
-0.0025457747 -0.0005033418 0.0006432211 -0.0019620985 -0.0015006443 0.002886927 0.0021999313 0.0005946657
-0.0020844159 0.000401497 -0.00027893754 -0.0025471107 -0.00096364063 0.001947367 0.0024131392 0.0026324457
0.0014600161 -0.0021507184 -0.002140317 -0.0009575268 0.0013967066 0.00039751237 -0.0010332159 0.002444618
0.0025592474 -0.0023916718 -0.0028703564 0.0027445494 -0.00012410933 -0.00176309 -0.002708131 -0.0022442816
-0.0006831502 -3.0529336e-06 -0.0027337072 -0.0024010888 -0.002255354 -0.0007683594 -0.0011697148 0.00131799

tfl.pseudo_qconst1 i1 [256, 1629]
00000000: 5b5b 6fad bb96 a7cd f862 c7d1 0d2a c926
00000010: df42 e37e f263 28bf a7f5 5be7 a5f7 b7c8
00000020: a1a0 b1c2 2bd0 2809 f995 625d 5952 5d42
00000030: 5509 708d e9e4 1fd6 ca03 3dfb a30d 4bb0
00000040: 9f28 9384 e643 8bcb 79e9 154d 4db7 31fe
00000050: 01e4 44cb 3490 a276 0ea2 0109 09ac 4f3d
00000060: 121e 0da8 eac9 e263 322f f62d bc62 255a
00000070: 6c9f 18cf 8ece 05a8 062d f9ec 1a8c 6146
00000080: 61ee adc8 30f0 4894 b2ee 4c45 7561 d5fd
00000090: 984e c9c3 e150 b7dd c2c6 ab12 3125 35c4
000000a0: a8ee 176c e7ce 6d5c 2799 c012 ab0a 5c49
000000b0: 1cd0 dee9 670b 6d8d 4300 eff4 f7ec 0d96
000000c0: 5d0d b836 bda0 bad7 7537 936a d018 4fd8
000000d0: 9889 aca2 49d7 4e10 5505 4461 2697 bcee
000000e0: 9837 634c dbe2 1a1a 78ac 135e e511 fc8e
000000f0: 0e90 75e9 43ee 7229 8f0d b8bf 45d6 43ba
91 91 111 -83 -69 -106 -89 -51
-8 98 -57 -47 13 42 -55 38
-33 66 -29 126 -14 99 40 -65
-89 -11 91 -25 -91 -9 -73 -56
-95 -96 -79 -62 43 -48 40 9
-7 -107 98 93 89 82 93 66
85 9 112 -115 -23 -28 31 -42
-54 3 61 -5 -93 13 75 -80
-97 40 -109 -124 -26 67 -117 -53
121 -23 21 77 77 -73 49 -2
1 -28 68 -53 52 -112 -94 118
14 -94 1 9 9 -84 79 61
18 30 13 -88 -22 -55 -30 99
50 47 -10 45 -68 98 37 90
108 -97 24 -49 -114 -50 5 -88
6 45 -7 -20 26 -116 97 70
97 -18 -83 -56 48 -16 72 -108
-78 -18 76 69 117 97 -43 -3
-104 78 -55 -61 -31 80 -73 -35
-62 -58 -85 18 49 37 53 -60
-88 -18 23 108 -25 -50 109 92
39 -103 -64 18 -85 10 92 73
28 -48 -34 -23 103 11 109 -115
67 0 -17 -12 -9 -20 13 -106
93 13 -72 54 -67 -96 -70 -41
117 55 -109 106 -48 24 79 -40
-104 -119 -84 -94 73 -41 78 16
85 5 68 97 38 -105 -68 -18
-104 55 99 76 -37 -30 26 26
120 -84 19 94 -27 17 -4 -114
14 -112 117 -23 67 -18 114 41
-113 13 -72 -65 69 -42 67 -70

tfl.pseudo_qconst2 i1 [256, 64]
00000000: 060b 353c f600 1318 f7fe e1ef 08b8 d4d3
00000010: fee5 10d9 0dd5 feff b2ca 0f42 fee2 f2ad
00000020: e541 f64a 7f01 f207 e216 f70d db25 f238
00000030: 1f14 bcef c103 1afc e610 1854 4e35 1dc3
00000040: 06bb 04e0 3209 f10d 4d2e 04dd 322b 0cfb
00000050: cb98 291b 1436 e402 fe1b f6ff c1b2 4119
00000060: 1fe5 0af8 f881 49e1 3afa c734 0fcb fa14
00000070: 33ff cdef c0e5 3423 0ddf e576 f5d1 d1d6
00000080: e0fa 2a13 4bd7 f5ff 162e ed37 8122 0045
00000090: c603 c647 edec 55e1 58f0 fa2a cefc 2ef2
000000a0: f8e2 feab 3811 2615 f7eb c7f8 feda f947
000000b0: 0b05 26bc c51d 3611 cc27 e832 19d7 f0ec
000000c0: f70f 6d1c f81c 9df2 dce5 0fde 3bb6 cc03
000000d0: 25d3 f248 1c7f f8e8 1517 c51c f7da bf61
000000e0: f9f6 e4c5 1d02 01d6 09ec 00d3 db42 fe68
000000f0: 12cd e2c7 1af8 d931 0b1e 14d2 e50c 02cf
6 11 53 60 -10 0 19 24
-9 -2 -31 -17 8 -72 -44 -45
-2 -27 16 -39 13 -43 -2 -1
-78 -54 15 66 -2 -30 -14 -83
-27 65 -10 74 127 1 -14 7
-30 22 -9 13 -37 37 -14 56
31 20 -68 -17 -63 3 26 -4
-26 16 24 84 78 53 29 -61
6 -69 4 -32 50 9 -15 13
77 46 4 -35 50 43 12 -5
-53 -104 41 27 20 54 -28 2
-2 27 -10 -1 -63 -78 65 25
31 -27 10 -8 -8 -127 73 -31
58 -6 -57 52 15 -53 -6 20
51 -1 -51 -17 -64 -27 52 35
13 -33 -27 118 -11 -47 -47 -42
-32 -6 42 19 75 -41 -11 -1
22 46 -19 55 -127 34 0 69
-58 3 -58 71 -19 -20 85 -31
88 -16 -6 42 -50 -4 46 -14
-8 -30 -2 -85 56 17 38 21
-9 -21 -57 -8 -2 -38 -7 71
11 5 38 -68 -59 29 54 17
-52 39 -24 50 25 -41 -16 -20
-9 15 109 28 -8 28 -99 -14
-36 -27 15 -34 59 -74 -52 3
37 -45 -14 72 28 127 -8 -24
21 23 -59 28 -9 -38 -65 97
-7 -10 -28 -59 29 2 1 -42
9 -20 0 -45 -37 66 -2 104
18 -51 -30 -57 26 -8 -39 49
11 30 20 -46 -27 12 2 -49

arith.constant21 f4 [256]
00000000: 60fb b5b9 78bf ec3a 6311 e9ba ff17 14bb
00000010: fffc 043b 1f36 a3ba ff0c 06bb aef4 383b
00000020: 7fdd 2fbb 2cef c23a 2a85 1bbb 03c0 11bb
00000030: 1044 35bb 0c98 81ba 0af6 3d3b 16f5 2c3b
00000040: 7e1e b03a 53b9 2c3b 7e6b 0cbb c833 10bb
00000050: d822 93b8 2169 3c3b f7e5 dfb9 ffd7 feba
00000060: 8faa dc39 f962 fd3a 366c 313b 2060 d1ba
00000070: 737e f43a b6e5 c1ba 8638 443a 8431 103b
00000080: 3045 c23a 2855 a2ba b19a 81ba 07d2 e9ba
00000090: 6192 813a 1b22 dfba 942f 7639 fa26 993a
000000a0: e0a9 d2ba 4178 313b 66b4 0dba ef1f dfba
000000b0: 6a2e a73a 781a 3d3b 2ef9 c5b9 b479 42b9
000000c0: e251 2cbb cd0b 03bb fe5f daba d20e b73a
000000d0: 3695 e33a e0a6 a239 bc4d 163b 31f1 183b
000000e0: 9e1f 05ba 68c7 25bb 8b0f 093b 565e 2fbb
000000f0: 7038 a83a 6a19 2abb 122c d93a baae 343b
00000100: 0b13 803f f342 803f 8b92 7f3f f98d 7f3f
00000110: c90c 803f d26f 7f3f 3a7c 7f3f c154 803f
00000120: 6957 7f3f b640 803f fa66 7f3f 02e2 7f3f
00000130: 9f3b 7f3f 7f94 7f3f d260 803f 110e 803f
00000140: a496 7f3f 4a5a 803f 325e 7f3f b566 7f3f
00000150: 57b5 7f3f f761 803f 59e8 7f3f 637d 7f3f
00000160: 2051 803f 46f7 7f3f 475c 803f 2794 7f3f
00000170: 4f39 803f 527f 7f3f 8c1b 803f fe55 803f
00000180: e659 803f 33d8 7f3f 38a2 7f3f 4295 7f3f
00000190: 201e 803f e07d 7f3f 141d 803f eb25 803f
000001a0: f1a5 7f3f 8555 803f 2e4b 7f3f 837b 7f3f
000001b0: 0422 803f d660 803f 0ae7 7f3f 0843 7f3f
000001c0: 9556 7f3f cf67 7f3f 6e96 7f3f 1c2a 803f
000001d0: 4a54 803f 0542 7f3f 7076 7f3f 5d53 803f
000001e0: 1abb 7f3f d75f 7f3f eefe 7f3f 1254 7f3f
000001f0: 482b 803f 7a53 7f3f a92e 803f 2056 803f
00000200: 74f3 d93a d6b5 403a 92ef 11bb 4e23 12bb
00000210: ecfc ddb9 39f4 fbba 9124 35bb 5417 08b9
00000220: 5e32 5339 5dc8 10bb a23c ef3a a93c b73a
00000230: a78e 44bb 5d94 1c3b 9434 4639 4708 1cbb
00000240: e0db 09b9 7ef7 d93a e1f5 11bb 3c08 13bb
00000250: 6e29 25bb a258 41bb 5815 24bb 9a9d 22bb
00000260: 5e07 403b 3c77 5238 aa04 193b 30f3 06bb
00000270: 5587 c53a 120e 09bb 1ce6 faba 48be f5ba
00000280: e7bf 3cba 8311 7bba 4ebf 0a3b 0615 0a3b
00000290: c14a b9ba ecdf 6c3a 9ce2 2a3b 8427 273b
000002a0: c09f e2b7 9da0 20bb a8ff d2b8 484a 08bb
000002b0: 824c 04bb 6381 133b 0636 21bb 2e13 203b
000002c0: c655 313b 71e8 eb3a 358f 08ba 91ad 3dba
000002d0: 0ac4 043b 0605 bcba 425b 8cba 2ac0 22bb
000002e0: 3f44 183b 2036 083b f9d2 2ebb 9642 8dba
000002f0: f9ce cc3a 16bd 073b 94ba 75b9 9e25 40bb
00000300: 0eb1 0dba f95a ed3a 9b54 f4ba 4d10 c7ba
00000310: 0a63 6cba 2ca3 ecba 4677 01bb 4653 363b
00000320: 39e6 34bb ccf9 9e3a 2445 19bb 72d4 afba
00000330: 2e91 39bb 682f 9dba 3cc9 023b af23 303b
00000340: 3c86 813a 19bc 2f3b 4dad 09bb 61ed 0dbb
00000350: cc03 c1b9 aa5e 413b 20f7 f938 44cf ffba
00000360: 3494 6e3a d63c 173b 9e9c 273b aefd e2ba
00000370: 2a21 e73a 5842 acba 1163 a93a 2ad9 3e3b
00000380: 7088 da3a 6a0b baba c41f e0ba 7ca5 ccb9
00000390: 8b11 a73a 5c3f bfba 020b 513a cda5 a33a
000003a0: 633b d3ba 5ae4 263b ca4d ecb9 56b0 d7ba
000003b0: 9cbb 553a 7858 303b f810 c73a d04d f1b8
000003c0: c499 30bb d501 04bb bb3d f4ba 082d ea3a
000003d0: d041 103a 883f e838 0d24 293b ec32 183b
000003e0: 64d1 a9ba 7b88 27bb 93e8 043b 140c aab9
000003f0: 84d9 983a 2521 28ba d782 d63a 9205 363b
-0.000347103 0.0018062433 -0.0017781671 -0.002259731 0.00202924 -0.0012452042 -0.0020454524 0.0028222012
-0.0026834903 0.0014872304 -0.0023730495 -0.0022239692 -0.0027658977 -0.0009887232 0.0028985762 0.00263912
0.0013436822 0.002635558 -0.0021426375 -0.002200352 -7.0159964e-05 0.0028749185 -0.00042705212 -0.0019443034
0.00042088746 0.0019331864 0.0027072555 -0.0015974082 0.0018653407 -0.0014793191 0.0007485229 0.002200217
0.0014821645 -0.0012384998 -0.000988802 -0.0017839082 0.0009885543 -0.0017023714 0.00023478112 0.001168459
-0.0016072355 0.0027079734 -0.00054056046 -0.0017023067 0.0012754921 0.0028854888 -0.0003776042 -0.0001854662
-0.0026293923 -0.0019996047 -0.0016660688 0.0013966209 0.0017363194 0.0003102338 0.0022934517 0.002333712
-0.00050782587 -0.0025295857 0.0020913805 -0.002675911 0.0012834202 -0.002595509 0.001656892 0.0027569965
1.0005811 1.0020431 0.9983298 0.9982601 1.0003902 0.9978 0.9979893 1.0025865
0.9974275 1.0019748 0.99766505 0.99954236 0.9970035 0.9983596 1.0029547 1.0004293
0.99839234 1.0027554 0.99753106 0.99766093 0.9988608 1.0029896 0.9996391 0.998007
1.0024757 0.99986684 1.0028161 0.9983544 1.0017489 0.9980365 1.0008407 1.0026243
1.0027435 0.9993927 0.998569 0.99837124 1.0009193 0.99801445 1.0008874 1.0011572
0.9986258 1.0026098 0.9972409 0.9979784 1.0010381 1.0029552 0.9996191 0.99711657
0.9974149 0.99767774 0.9983891 1.0012851 1.0025723 0.9971011 0.99790096 1.002544
0.9989487 0.99755615 0.99998367 0.99737656 1.0013208 0.9973675 1.001424 1.0026283
0.0016628341 0.00073513144 -0.002226804 -0.0022298875 -0.00042340846 -0.0019222564 -0.0027640203 -0.00012978661
0.00020141291 -0.0022092082 0.0018252323 0.001397987 -0.0029992254 0.0023892142 0.00018902338 -0.0023808645
-0.00013147248 0.0016629545 -0.00222718 -0.0022435328 -0.0025201696 -0.0029502292 -0.0025037136 -0.0024813176
0.0029301266 5.0178947e-05 0.0023348727 -0.0020591728 0.0015070239 -0.0020912928 -0.0019142064 -0.0018748725
-0.00072002265 -0.00095774996 0.0021171155 0.002106966 -0.0014136658 0.00090360525 0.002607501 0.002550573
-2.7015689e-05 -0.0024509795 -0.000100612 -0.0020796228 -0.0020187204 0.002250754 -0.002459885 0.0024425494
0.0027059182 0.001799835 -0.0005209328 -0.0007235641 0.002025845 -0.0014344759 -0.0010708349 -0.0024833777
0.0023234037 0.0020784214 -0.0026676042 -0.001077729 0.0015625648 0.002071207 -0.00023434527 -0.0029319297
-0.00054051063 0.0018108777 -0.0018640937 -0.0015187353 -0.00090174435 -0.0018054 -0.001975493 0.002782063
-0.0027603044 0.0012128889 -0.0023387158 -0.0013414754 -0.0028315294 -0.0011992278 0.001995637 0.0026876738
0.0009881924 0.0026814996 -0.0021007836 -0.0021656381 -0.00036814658 0.0029505887 0.00011919276 -0.0019516726
0.00091010635 0.0023077033 0.002557553 -0.0017318034 0.0017633785 -0.001314233 0.0012923201 0.002912114
0.0016672742 -0.0014194075 -0.0017099311 -0.00039033208 0.0012746317 -0.0014591026 0.00079743576 0.0012485326
-0.0016115721 0.0025465698 -0.00045071385 -0.001645575 0.0008153261 0.00269082 0.0015187552 -0.00011506269
-0.002694712 -0.0020142694 -0.001863412 0.0017866204 0.0005502971 0.00011074456 0.0025808841 0.0023223711
-0.001295608 -0.0025563526 0.0020280227 -0.00032433926 0.0011661504 -0.00064136303 0.0016365898 0.0027774316

tfl.pseudo_qconst3 i1 [256, 64]
00000000: 4bc9 6c51 78c9 4d9a a5b4 0e52 0351 3399
00000010: f531 dda9 c12b a61e e378 d829 2469 bec0
00000020: 48c5 0447 1abb ba86 946c b7c9 d6d4 e56a
00000030: 6037 d93e 13c2 79f7 fb07 e2b2 8166 2bf5
00000040: e83b ffec f562 b328 a18d 2e6d c39b ef7f
00000050: d7c4 51cd eebc edf8 fa47 11c8 b8f1 7991
00000060: bf68 5259 e059 b84c 5149 d3fc 746e 97ee
00000070: bfe7 fff2 4246 cf42 0f47 4774 7357 8e53
00000080: 3385 e77a 9567 e4e1 2804 c6a8 7fa7 afe5
00000090: b162 7cf1 7db0 e366 48b0 20cd 7f7a 0508
000000a0: c7fb cf98 23e9 716b 0a8b 13a0 2d95 6d56
000000b0: 16a2 5d5b 2596 e036 9771 5fa9 0ff9 b524
000000c0: f555 5d40 0a22 4600 dc36 6ed6 d3ba e839
000000d0: 44d1 2602 6f39 5c9f 94b5 51ed 7a91 000e
000000e0: 7439 96d6 c62a 9a81 ad0f 1d67 50f4 0edf
000000f0: 6c65 757c e25e 695a 7121 8ec4 9f62 f326
75 -55 108 81 120 -55 77 -102
-91 -76 14 82 3 81 51 -103
-11 49 -35 -87 -63 43 -90 30
-29 120 -40 41 36 105 -66 -64
72 -59 4 71 26 -69 -70 -122
-108 108 -73 -55 -42 -44 -27 106
96 55 -39 62 19 -62 121 -9
-5 7 -30 -78 -127 102 43 -11
-24 59 -1 -20 -11 98 -77 40
-95 -115 46 109 -61 -101 -17 127
-41 -60 81 -51 -18 -68 -19 -8
-6 71 17 -56 -72 -15 121 -111
-65 104 82 89 -32 89 -72 76
81 73 -45 -4 116 110 -105 -18
-65 -25 -1 -14 66 70 -49 66
15 71 71 116 115 87 -114 83
51 -123 -25 122 -107 103 -28 -31
40 4 -58 -88 127 -89 -81 -27
-79 98 124 -15 125 -80 -29 102
72 -80 32 -51 127 122 5 8
-57 -5 -49 -104 35 -23 113 107
10 -117 19 -96 45 -107 109 86
22 -94 93 91 37 -106 -32 54
-105 113 95 -87 15 -7 -75 36
-11 85 93 64 10 34 70 0
-36 54 110 -42 -45 -70 -24 57
68 -47 38 2 111 57 92 -97
-108 -75 81 -19 122 -111 0 14
116 57 -106 -42 -58 42 -102 -127
-83 15 29 103 80 -12 14 -33
108 101 117 124 -30 94 105 90
113 33 -114 -60 -97 98 -13 38

tfl.pseudo_qconst4 i1 [256, 64]
00000000: 94ec fa4e d7e4 f13b f1f9 f61f ce07 c5d9
00000010: a70d 9421 c745 b0f7 2727 0700 d1cf 097f
00000020: f625 4830 210f fd9e 0a32 101e 0fbe 5b40
00000030: 13ee d1cb 04f9 ee32 04c5 4566 3cd4 32f4
00000040: e707 121d 02c0 f8dd f42e fcff 1ef8 f2d3
00000050: 292e 14f8 d9d7 24e9 4dda 1109 fac2 8121
00000060: b6f7 2ad6 07d5 f31e 0d00 2629 f505 f432
00000070: 0934 16cd ec0a fcd2 dc11 072e 1bea 37bb
00000080: fcb6 b3fd 32d2 e4e9 f3dc c30b d903 43f0
00000090: 0026 0904 e7d5 e8d7 0c12 24fa e32a 121b
000000a0: ec46 0b05 070d a302 d13b ca0f f23c 212c
000000b0: d5d7 17f2 7fc7 ea54 2fed c5bb 1bd8 0f15
000000c0: 32f7 2f1d 1a36 9323 3a06 487f 0446 47e6
000000d0: 0401 2cb7 f441 a6df 0248 ca0d cdfa 2409
000000e0: 0fb8 0df0 27e5 0acf 15fd 190c 1402 c70e
000000f0: 271e 1a28 0253 e6e6 14ee 35d0 b3fe 122b
-108 -20 -6 78 -41 -28 -15 59
-15 -7 -10 31 -50 7 -59 -39
-89 13 -108 33 -57 69 -80 -9
39 39 7 0 -47 -49 9 127
-10 37 72 48 33 15 -3 -98
10 50 16 30 15 -66 91 64
19 -18 -47 -53 4 -7 -18 50
4 -59 69 102 60 -44 50 -12
-25 7 18 29 2 -64 -8 -35
-12 46 -4 -1 30 -8 -14 -45
41 46 20 -8 -39 -41 36 -23
77 -38 17 9 -6 -62 -127 33
-74 -9 42 -42 7 -43 -13 30
13 0 38 41 -11 5 -12 50
9 52 22 -51 -20 10 -4 -46
-36 17 7 46 27 -22 55 -69
-4 -74 -77 -3 50 -46 -28 -23
-13 -36 -61 11 -39 3 67 -16
0 38 9 4 -25 -43 -24 -41
12 18 36 -6 -29 42 18 27
-20 70 11 5 7 13 -93 2
-47 59 -54 15 -14 60 33 44
-43 -41 23 -14 127 -57 -22 84
47 -19 -59 -69 27 -40 15 21
50 -9 47 29 26 54 -109 35
58 6 72 127 4 70 71 -26
4 1 44 -73 -12 65 -90 -33
2 72 -54 13 -51 -6 36 9
15 -72 13 -16 39 -27 10 -49
21 -3 25 12 20 2 -57 14
39 30 26 40 2 83 -26 -26
20 -18 53 -48 -77 -2 18 43
